…
[15:33:17.513671]   pizza: 963
[15:33:17.513681]   strawberry: 949
[15:33:17.513691]   coffee_mug: 504
[15:33:17.513700]   violin: 889
[15:33:17.513710]   backpack: 414
[15:33:17.513720]   umbrella: 879
[15:33:17.513729] 
Initializing VAE...
[15:33:17.704770] Working with z of shape (1, 16, 16, 16) = 4096 dimensions.
[15:33:23.658947] Loading pre-trained KL-VAE
[15:33:23.659020] Missing keys:
[15:33:23.659031] []
[15:33:23.659041] Unexpected keys:
[15:33:23.659050] []
[15:33:23.659060] Restored from pretrained/vae/kl16.ckpt
[15:33:24.656465] Initializing FAR model: far_huge
[15:33:38.748910] Model = FAR(
  (class_emb): Embedding(1000, 1280)
  (z_proj): Linear(in_features=16, out_features=1280, bias=True)
  (z_proj_ln): LayerNorm((1280,), eps=1e-06, elementwise_affine=True)
  (encoder_blocks): ModuleList(
    (0-19): 20 x Block(
      (norm1): LayerNorm((1280,), eps=1e-06, elementwise_affine=True)
      (attn): Attention(
        (qkv): Linear(in_features=1280, out_features=3840, bias=True)
        (q_norm): Identity()
        (k_norm): Identity()
        (attn_drop): Dropout(p=0.1, inplace=False)
        (proj): Linear(in_features=1280, out_features=1280, bias=True)
        (proj_drop): Dropout(p=0.1, inplace=False)
      )
      (ls1): Identity()
      (drop_path1): Identity()
      (norm2): LayerNorm((1280,), eps=1e-06, elementwise_affine=True)
      (mlp): Mlp(
        (fc1): Linear(in_features=1280, out_features=5120, bias=True)
        (act): GELU(approximate='none')
        (drop1): Dropout(p=0.1, inplace=False)
        (norm): Identity()
        (fc2): Linear(in_features=5120, out_features=1280, bias=True)
        (drop2): Dropout(p=0.1, inplace=False)
      )
      (ls2): Identity()
      (drop_path2): Identity()
    )
  )
  (encoder_norm): LayerNorm((1280,), eps=1e-06, elementwise_affine=True)
  (decoder_embed): Linear(in_features=1280, out_features=1280, bias=True)
  (decoder_blocks): ModuleList(
    (0-19): 20 x Block(
      (norm1): LayerNorm((1280,), eps=1e-06, elementwise_affine=True)
      (attn): Attention(
        (qkv): Linear(in_features=1280, out_features=3840, bias=True)
        (q_norm): Identity()
        (k_norm): Identity()
        (attn_drop): Dropout(p=0.1, inplace=False)
        (proj): Linear(in_features=1280, out_features=1280, bias=True)
        (proj_drop): Dropout(p=0.1, inplace=False)
      )
      (ls1): Identity()
      (drop_path1): Identity()
      (norm2): LayerNorm((1280,), eps=1e-06, elementwise_affine=True)
      (mlp): Mlp(
        (fc1): Linear(in_features=1280, out_features=5120, bias=True)
        (act): GELU(approximate='none')
        (drop1): Dropout(p=0.1, inplace=False)
        (norm): Identity()
        (fc2): Linear(in_features=5120, out_features=1280, bias=True)
        (drop2): Dropout(p=0.1, inplace=False)
      )
      (ls2): Identity()
      (drop_path2): Identity()
    )
  )
  (decoder_norm): LayerNorm((1280,), eps=1e-06, elementwise_affine=True)
  (diffloss): DiffLoss(
    (net): SimpleMLPAdaLN(
      (time_embed): TimestepEmbedder(
        (mlp): Sequential(
          (0): Linear(in_features=256, out_features=1024, bias=True)
          (1): SiLU()
          (2): Linear(in_features=1024, out_features=1024, bias=True)
        )
      )
      (cond_embed): Linear(in_features=1280, out_features=1024, bias=True)
      (index_cond_embed): Linear(in_features=1, out_features=1024, bias=True)
      (input_proj): Linear(in_features=16, out_features=1024, bias=True)
      (res_blocks): ModuleList(
        (0-2): 3 x ResBlock(
          (in_ln): LayerNorm((1024,), eps=1e-06, elementwise_affine=True)
          (mlp): Sequential(
            (0): Linear(in_features=1024, out_features=1024, bias=True)
            (1): SiLU()
            (2): Linear(in_features=1024, out_features=1024, bias=True)
          )
          (adaLN_modulation): Sequential(
            (0): SiLU()
            (1): Linear(in_features=1024, out_features=3072, bias=True)
          )
        )
      )
      (final_layer): FinalLayer(
        (norm_final): LayerNorm((1024,), eps=1e-06, elementwise_affine=False)
        (linear): Linear(in_features=1024, out_features=32, bias=True)
        (adaLN_modulation): Sequential(
          (0): SiLU()
          (1): Linear(in_features=1024, out_features=2048, bias=True)
        )
      )
    )
  )
)
[15:33:38.750909] Number of trainable parameters: 811.72M
[rank3]:[W Utils.hpp:106] Warning: Environment variable NCCL_ASYNC_ERROR_HANDLING is deprecated; use TORCH_NCCL_ASYNC_ERROR_HANDLING instead (function getCvarString)
[rank1]:[W Utils.hpp:106] Warning: Environment variable NCCL_ASYNC_ERROR_HANDLING is deprecated; use TORCH_NCCL_ASYNC_ERROR_HANDLING instead (function getCvarString)
…
