…
vae_path='pretrained/vae/kl16.ckpt',
vae_stride=16,
warmup_epochs=100,
weight_decay=0.02,
world_size=1)
[14:13:23.627862] Working with z of shape (1, 16, 16, 16) = 4096 dimensions.
[14:13:29.748765] Loading pre-trained KL-VAE
[14:13:29.748847] Missing keys:
[14:13:29.748861] []
[14:13:29.748873] Unexpected keys:
[14:13:29.748884] []
[14:13:29.748896] Restored from pretrained/vae/kl16.ckpt
Loading checkpoint shards: 100%|█████████████████████████████████████████████████████████████████████████████████████████████████████████████████| 2/2 [00:29<00:00, 14.65s/it]
[14:14:14.748855] Model = FAR_T2I(
  (context_embed): Linear(in_features=1536, out_features=1024, bias=True)
  (z_proj): Linear(in_features=16, out_features=1024, bias=True)
  (z_proj_ln): LayerNorm((1024,), eps=1e-06, elementwise_affine=True)
  (encoder_blocks): ModuleList(
    (0-15): 16 x BasicTransformerBlock(
      (norm1): LayerNorm((1024,), eps=1e-05, elementwise_affine=False)
      (attn1): Attention(
        (to_q): Linear(in_features=1024, out_features=1024, bias=True)
        (to_k): Linear(in_features=1024, out_features=1024, bias=True)
        (to_v): Linear(in_features=1024, out_features=1024, bias=True)
        (to_out): ModuleList(
          (0): Linear(in_features=1024, out_features=1024, bias=True)
          (1): Dropout(p=0.0, inplace=False)
        )
      )
      (norm2): LayerNorm((1024,), eps=1e-05, elementwise_affine=False)
      (attn2): Attention(
        (to_q): Linear(in_features=1024, out_features=1024, bias=True)
        (to_k): Linear(in_features=1024, out_features=1024, bias=True)
        (to_v): Linear(in_features=1024, out_features=1024, bias=True)
        (to_out): ModuleList(
          (0): Linear(in_features=1024, out_features=1024, bias=True)
          (1): Dropout(p=0.0, inplace=False)
        )
      )
      (norm3): LayerNorm((1024,), eps=1e-05, elementwise_affine=False)
      (ff): FeedForward(
        (net): ModuleList(
          (0): GELU(
            (proj): Linear(in_features=1024, out_features=4096, bias=True)
          )
          (1): Dropout(p=0.0, inplace=False)
          (2): Linear(in_features=4096, out_features=1024, bias=True)
        )
      )
    )
  )
  (encoder_norm): LayerNorm((1024,), eps=1e-06, elementwise_affine=True)
  (decoder_embed): Linear(in_features=1024, out_features=1024, bias=True)
  (decoder_blocks): ModuleList(
    (0-15): 16 x BasicTransformerBlock(
      (norm1): LayerNorm((1024,), eps=1e-05, elementwise_affine=False)
      (attn1): Attention(
        (to_q): Linear(in_features=1024, out_features=1024, bias=True)
        (to_k): Linear(in_features=1024, out_features=1024, bias=True)
        (to_v): Linear(in_features=1024, out_features=1024, bias=True)
        (to_out): ModuleList(
          (0): Linear(in_features=1024, out_features=1024, bias=True)
          (1): Dropout(p=0.0, inplace=False)
        )
      )
      (norm2): LayerNorm((1024,), eps=1e-05, elementwise_affine=False)
      (attn2): Attention(
        (to_q): Linear(in_features=1024, out_features=1024, bias=True)
        (to_k): Linear(in_features=1024, out_features=1024, bias=True)
        (to_v): Linear(in_features=1024, out_features=1024, bias=True)
        (to_out): ModuleList(
          (0): Linear(in_features=1024, out_features=1024, bias=True)
          (1): Dropout(p=0.0, inplace=False)
        )
      )
      (norm3): LayerNorm((1024,), eps=1e-05, elementwise_affine=False)
      (ff): FeedForward(
        (net): ModuleList(
          (0): GELU(
            (proj): Linear(in_features=1024, out_features=4096, bias=True)
          )
          (1): Dropout(p=0.0, inplace=False)
          (2): Linear(in_features=4096, out_features=1024, bias=True)
        )
      )
    )
  )
  (decoder_norm): LayerNorm((1024,), eps=1e-06, elementwise_affine=True)
  (diffloss): DiffLoss(
    (net): SimpleMLPAdaLN(
      (time_embed): TimestepEmbedder(
        (mlp): Sequential(
          (0): Linear(in_features=256, out_features=1024, bias=True)
          (1): SiLU()
          (2): Linear(in_features=1024, out_features=1024, bias=True)
        )
      )
      (cond_embed): Linear(in_features=1024, out_features=1024, bias=True)
      (index_cond_embed): Linear(in_features=1, out_features=1024, bias=True)
      (input_proj): Linear(in_features=16, out_features=1024, bias=True)
      (res_blocks): ModuleList(
        (0-2): 3 x ResBlock(
          (in_ln): LayerNorm((1024,), eps=1e-06, elementwise_affine=True)
          (mlp): Sequential(
            (0): Linear(in_features=1024, out_features=1024, bias=True)
            (1): SiLU()
            (2): Linear(in_features=1024, out_features=1024, bias=True)
          )
          (adaLN_modulation): Sequential(
            (0): SiLU()
            (1): Linear(in_features=1024, out_features=3072, bias=True)
          )
        )
      )
      (final_layer): FinalLayer(
        (norm_final): LayerNorm((1024,), eps=1e-06, elementwise_affine=False)
        (linear): Linear(in_features=1024, out_features=32, bias=True)
        (adaLN_modulation): Sequential(
          (0): SiLU()
          (1): Linear(in_features=1024, out_features=2048, bias=True)
        )
      )
    )
  )
)
[14:14:14.752695] Number of trainable parameters: 561.30256M
[14:14:16.202345] base lr: 1.00e-04
[14:14:16.202393] actual lr: 6.25e-06
[14:14:16.202405] effective batch size: 16
[rank0]:[W Utils.hpp:106] Warning: Environment variable NCCL_ASYNC_ERROR_HANDLING is deprecated; use TORCH_NCCL_ASYNC_ERROR_HANDLING instead (function getCvarString)
…
